_________________________________________________________________
Layer (type)                 Output Shape              Param #   
=================================================================
conv2d_1 (Conv2D)            (None, 100, 100, 64)      4864      
_________________________________________________________________
batch_normalization_1 (Batch (None, 100, 100, 64)      256       
_________________________________________________________________
activation_1 (Activation)    (None, 100, 100, 64)      0         
_________________________________________________________________
conv2d_2 (Conv2D)            (None, 100, 100, 64)      102464    
_________________________________________________________________
batch_normalization_2 (Batch (None, 100, 100, 64)      256       
_________________________________________________________________
activation_2 (Activation)    (None, 100, 100, 64)      0         
_________________________________________________________________
conv2d_3 (Conv2D)            (None, 100, 100, 64)      102464    
_________________________________________________________________
batch_normalization_3 (Batch (None, 100, 100, 64)      256       
_________________________________________________________________
activation_3 (Activation)    (None, 100, 100, 64)      0         
_________________________________________________________________
conv2d_4 (Conv2D)            (None, 100, 100, 64)      102464    
_________________________________________________________________
batch_normalization_4 (Batch (None, 100, 100, 64)      256       
_________________________________________________________________
activation_4 (Activation)    (None, 100, 100, 64)      0         
_________________________________________________________________
conv2d_5 (Conv2D)            (None, 100, 100, 64)      102464    
_________________________________________________________________
batch_normalization_5 (Batch (None, 100, 100, 64)      256       
_________________________________________________________________
activation_5 (Activation)    (None, 100, 100, 64)      0         
_________________________________________________________________
conv2d_6 (Conv2D)            (None, 100, 100, 64)      102464    
_________________________________________________________________
batch_normalization_6 (Batch (None, 100, 100, 64)      256       
_________________________________________________________________
activation_6 (Activation)    (None, 100, 100, 64)      0         
_________________________________________________________________
max_pooling2d_1 (MaxPooling2 (None, 50, 50, 64)        0         
_________________________________________________________________
conv2d_7 (Conv2D)            (None, 50, 50, 96)        153696    
_________________________________________________________________
batch_normalization_7 (Batch (None, 50, 50, 96)        384       
_________________________________________________________________
activation_7 (Activation)    (None, 50, 50, 96)        0         
_________________________________________________________________
conv2d_8 (Conv2D)            (None, 50, 50, 96)        230496    
_________________________________________________________________
batch_normalization_8 (Batch (None, 50, 50, 96)        384       
_________________________________________________________________
activation_8 (Activation)    (None, 50, 50, 96)        0         
_________________________________________________________________
conv2d_9 (Conv2D)            (None, 50, 50, 96)        230496    
_________________________________________________________________
batch_normalization_9 (Batch (None, 50, 50, 96)        384       
_________________________________________________________________
activation_9 (Activation)    (None, 50, 50, 96)        0         
_________________________________________________________________
conv2d_10 (Conv2D)           (None, 50, 50, 96)        230496    
_________________________________________________________________
batch_normalization_10 (Batc (None, 50, 50, 96)        384       
_________________________________________________________________
activation_10 (Activation)   (None, 50, 50, 96)        0         
_________________________________________________________________
conv2d_11 (Conv2D)           (None, 50, 50, 96)        230496    
_________________________________________________________________
batch_normalization_11 (Batc (None, 50, 50, 96)        384       
_________________________________________________________________
activation_11 (Activation)   (None, 50, 50, 96)        0         
_________________________________________________________________
conv2d_12 (Conv2D)           (None, 50, 50, 96)        230496    
_________________________________________________________________
batch_normalization_12 (Batc (None, 50, 50, 96)        384       
_________________________________________________________________
activation_12 (Activation)   (None, 50, 50, 96)        0         
_________________________________________________________________
max_pooling2d_2 (MaxPooling2 (None, 25, 25, 96)        0         
_________________________________________________________________
conv2d_13 (Conv2D)           (None, 25, 25, 128)       307328    
_________________________________________________________________
batch_normalization_13 (Batc (None, 25, 25, 128)       512       
_________________________________________________________________
activation_13 (Activation)   (None, 25, 25, 128)       0         
_________________________________________________________________
conv2d_14 (Conv2D)           (None, 25, 25, 128)       409728    
_________________________________________________________________
batch_normalization_14 (Batc (None, 25, 25, 128)       512       
_________________________________________________________________
activation_14 (Activation)   (None, 25, 25, 128)       0         
_________________________________________________________________
conv2d_15 (Conv2D)           (None, 25, 25, 128)       409728    
_________________________________________________________________
batch_normalization_15 (Batc (None, 25, 25, 128)       512       
_________________________________________________________________
activation_15 (Activation)   (None, 25, 25, 128)       0         
_________________________________________________________________
conv2d_16 (Conv2D)           (None, 25, 25, 128)       409728    
_________________________________________________________________
batch_normalization_16 (Batc (None, 25, 25, 128)       512       
_________________________________________________________________
activation_16 (Activation)   (None, 25, 25, 128)       0         
_________________________________________________________________
conv2d_17 (Conv2D)           (None, 25, 25, 128)       409728    
_________________________________________________________________
batch_normalization_17 (Batc (None, 25, 25, 128)       512       
_________________________________________________________________
activation_17 (Activation)   (None, 25, 25, 128)       0         
_________________________________________________________________
conv2d_18 (Conv2D)           (None, 25, 25, 128)       409728    
_________________________________________________________________
batch_normalization_18 (Batc (None, 25, 25, 128)       512       
_________________________________________________________________
activation_18 (Activation)   (None, 25, 25, 128)       0         
_________________________________________________________________
max_pooling2d_3 (MaxPooling2 (None, 12, 12, 128)       0         
_________________________________________________________________
conv2d_19 (Conv2D)           (None, 12, 12, 160)       512160    
_________________________________________________________________
batch_normalization_19 (Batc (None, 12, 12, 160)       640       
_________________________________________________________________
activation_19 (Activation)   (None, 12, 12, 160)       0         
_________________________________________________________________
conv2d_20 (Conv2D)           (None, 12, 12, 160)       640160    
_________________________________________________________________
batch_normalization_20 (Batc (None, 12, 12, 160)       640       
_________________________________________________________________
activation_20 (Activation)   (None, 12, 12, 160)       0         
_________________________________________________________________
conv2d_21 (Conv2D)           (None, 12, 12, 160)       640160    
_________________________________________________________________
batch_normalization_21 (Batc (None, 12, 12, 160)       640       
_________________________________________________________________
activation_21 (Activation)   (None, 12, 12, 160)       0         
_________________________________________________________________
conv2d_22 (Conv2D)           (None, 12, 12, 160)       640160    
_________________________________________________________________
batch_normalization_22 (Batc (None, 12, 12, 160)       640       
_________________________________________________________________
activation_22 (Activation)   (None, 12, 12, 160)       0         
_________________________________________________________________
conv2d_23 (Conv2D)           (None, 12, 12, 160)       640160    
_________________________________________________________________
batch_normalization_23 (Batc (None, 12, 12, 160)       640       
_________________________________________________________________
activation_23 (Activation)   (None, 12, 12, 160)       0         
_________________________________________________________________
conv2d_24 (Conv2D)           (None, 12, 12, 160)       640160    
_________________________________________________________________
batch_normalization_24 (Batc (None, 12, 12, 160)       640       
_________________________________________________________________
activation_24 (Activation)   (None, 12, 12, 160)       0         
_________________________________________________________________
max_pooling2d_4 (MaxPooling2 (None, 6, 6, 160)         0         
_________________________________________________________________
flatten_1 (Flatten)          (None, 5760)              0         
=================================================================
Total params: 7,903,040
Trainable params: 7,897,664
Non-trainable params: 5,376
_________________________________________________________________
None
